EMG_recording/model_parameter/2-3_with_model.pth (torch, 38243 bytes, 16 tensors)

weight f4 [8, 1, 7]
-0.29318288 -0.20414823 -0.23226875 0.18223403 0.06155941 -0.09575449 0.12632251 0.21904904
0.21505491 -0.013901105 0.1156606 -0.24640791 -0.01276125 -0.06961389 0.054701604 -0.160931
0.15570152 0.016993271 -0.1818366 0.088238046 0.33279306 0.103109576 0.19330598 -0.2586632
-0.124010235 -0.08830833 0.16815124 0.073823474 0.18797237 -0.014796447 0.02017567 -0.08155557
0.08937376 -0.21772261 -0.12975763 0.0830384 0.14889826 -0.16435954 0.30488154 -0.20494269
-0.1718825 -0.27589536 0.33110127 0.11672383 -0.03723362 -0.093097515 0.029509148 -0.27224955
0.13445336 0.011244329 0.09134972 0.05228776 -0.07873567 -0.19631147 0.029453926 0.20495608
00000000: 111c 96be 3c0c 51be dcd7 6dbe 8f9b 3a3e
00000010: b825 7c3d ee1a c4bd b05a 013e 644e 603e
00000020: 5b37 5c3e 76c1 63bc 77df ec3d 5b52 7cbe
00000030: 9014 51bc ba91 8ebd ca0e 603d 19cb 24be
00000040: 3870 1f3e 7935 8b3c 6033 3abe 26b6 b43d
00000050: da63 aa3e 1d2b d33d 01f2 453e 816f 84be
00000060: 14f9 fdbd ffda b4bd d72f 2c3e c330 973d
00000070: d47b 403e cc6c 72bc 7247 a53c 9b06 a7bd
00000080: 9709 b73d adf2 5ebe 2fdf 04be 0910 aa3d
00000090: c978 183e de4d 28be 6f19 9c3e 7fdc 51be
000000a0: f701 30be 2842 8dbe 1b86 a93e e70c ef3d
000000b0: 4882 18bd e9a9 bebd 2bbd f13c 4b64 8bbe
000000c0: 24ae 093e 223a 383c 9015 bb3d b12b 563d
000000d0: 2b40 a1bd e005 49be 5c49 f13c 02e0 513e

bias f4 [8]
-4.872177e-08 -4.26037e-07 -8.9321617e-10 -5.0542305e-08 -6.281114e-07 5.229328e-07 7.6397424e-07 -5.9072953e-08
00000000: 2742 51b3 14ba e4b4 8086 75b0 da13 59b3
00000010: 7d9b 28b5 ab5f 0c35 e913 4d35 66b7 7db3

weight f4 [8]
0.8981558 0.7329146 0.8061743 0.80643463 0.8869045 0.91051227 0.8144589 0.7839747
00000000: 8aed 653f 4ba0 3b3f 7061 4e3f 8072 4e3f
00000010: 2c0c 633f 5517 693f 6180 503f 91b2 483f

bias f4 [8]
-0.18144947 -0.12897842 -0.21237805 -0.070510626 -0.16105667 -0.22812568 -0.18010965 -0.114127405
00000000: e4cd 39be eb12 04be a279 59be e067 90bd
00000010: 0aec 24be c799 69be aa6e 38be a1bb e9bd

running_mean f4 [8]
-0.10263278 0.09112493 -0.013044697 0.013932209 0.028135885 0.05837644 0.076523535 -0.018188166
00000000: 2331 d2bd b59f ba3d 6db9 55bc ec43 643c
00000010: 3a7d e63c 221c 6f3d 5fb8 9c3d 59ff 94bc

running_var f4 [8]
146239.38 43346.992 59690.59 1757.1129 26426.607 69596.52 35742.477 6710.3535
00000000: d8cf 0e48 fe52 2947 972a 6947 9da3 db44
00000010: 3775 ce46 43ee 8747 7a9e 0b47 d4b2 d145

weight f4 [16, 8, 5]
-0.03398106 0.09042398 0.04075298 -0.14128315 -0.09987809 0.003382214 0.31830207 -0.17190129
0.10406469 -0.015086212 0.04108366 -0.18905053 0.07732821 0.1036385 -0.19592988 0.05583803
0.0066600638 0.008362111 0.11619164 -0.12972265 -0.12349549 0.08854945 -0.14706495 -0.07716404
-0.03298197 -0.09905549 0.083580524 -0.05334263 -0.28206915 -0.024473384 0.08238275 0.20182124
-0.20187014 0.07019024 -0.013133362 0.04081394 0.020277455 0.05839857 0.07373523 -0.10630241
-0.13595366 0.04417712 0.0220207 -0.13527729 0.2381635 -0.18749246 0.06719209 -0.16241573
0.09682437 0.12012405 -0.1297944 0.06841865 0.033288725 0.080686115 -0.1979215 -0.10402384
0.0038645682 0.0039050137 0.124866135 -0.105966076 -0.015374325 0.02548086 0.09859872 0.0042456384
0.22303382 -0.106990166 0.08899798 0.059749693 0.06902549 0.18901719 -0.23277202 -0.08617841
-0.11702174 0.12981392 0.08236776 -0.11749529 -0.05120773 -0.08281866 0.078756295 -0.052008715
-0.03963347 -0.10062519 -0.12229868 -0.004883059 0.08665249 -0.15616034 -0.1257635 -0.05942291
-0.1185141 0.16368975 -0.104663 -0.04275528 -0.14750972 0.038273737 0.13007824 -0.13285924
-0.07694589 -0.11655304 -0.015045148 0.10366014 -0.15450417 -0.21413827 -0.047042422 -0.0064772666
0.15456973 -0.10281786 -0.16168053 -0.04831968 -0.020411445 0.08402534 -0.040351007 -0.11100504
-0.01767174 -0.070517465 0.13827401 -0.15339857 -0.045456626 -0.13262796 -0.0021880327 0.112975195
0.03422938 -0.175217 0.0009654292 0.023972187 -0.041096494 -0.2603799 0.027877096 -0.05730167
-0.14362879 0.09418011 -0.06881332 0.13091907 -0.2000443 0.036961623 0.13749461 -0.0936873
0.10894225 -0.15681884 -0.035929423 0.122640386 -0.01736251 -0.1196475 -0.11639203 -0.03834623
-0.073407285 0.068990335 -0.23581225 -0.05016191 -0.036479853 -0.050801907 -0.25968003 0.11709454
-0.0062840977 -0.16319253 0.10481126 -0.054287832 0.12240436 -0.16002174 -0.09045915 0.13774213
0.029161282 0.0055417395 -0.14460713 -0.30349252 -0.20409727 -0.23772547 0.07979486 0.042669788
0.061778232 0.04396379 -0.122148536 0.0021290912 0.11412603 0.07185123 0.07372445 -0.2177116
0.040998973 0.08302876 0.09774159 0.077829264 -0.0029552465 0.0390679 -0.29768288 -0.17057663
-0.05242472 0.04339752 -0.04723597 -0.29030928 -0.19410898 -0.06309315 -0.19949391 0.0934289
0.06167038 0.080042295 0.086643614 -0.2018923 -0.0029243445 0.06597128 0.073293835 0.04108661
-0.28883275 -0.040265232 0.102526896 -0.2485827 0.040251996 0.110151 -0.08209411 -0.030957935
0.026092688 -0.038458984 0.086545266 -0.25969538 0.03318446 0.081313506 -0.23081625 0.06450548
-0.21776134 0.060835738 0.04626298 -0.1394436 -0.013099931 0.14544325 -0.056298625 -0.040870827
0.105572425 -0.099804975 0.06933026 -0.03837254 -0.22539802 0.16614856 0.12802441 0.07361897
0.053961996 0.111628115 0.033046093 0.05235378 -0.2550935 0.055784937 0.06261586 -0.09858969
0.26521173 -0.17691918 -0.013855205 0.010567596 0.0049061966 -0.13326031 -0.0961839 0.075988434
-0.21483932 0.0074665444 -0.113430366 0.1402449 -0.030440489 0.112481974 0.15378296 -0.10744327
00000000: b92f 0bbd 3530 b93d 99ec 263d 88ac 10be
00000010: e28c ccbd 23a8 5d3b 7df8 a23e e406 30be
00000020: de1f d53d 292c 77bc 5747 283d 7696 41be
00000030: 415e 9e3d 6c40 d43d d8a1 48be 6bb6 643d
00000040: aa3c da3b 3c01 093c e2f5 ed3d 04d6 04be
00000050: 34eb fcbd 6a59 b53d 3298 16be 2e08 9ebd
00000060: 1a18 07bd 9bdd cabd 442c ab3d cd7d 5abd
00000070: 5e6b 90be 687c c8bc 4ab8 a83d 3aaa 4e3e
00000080: 0cb7 4ebe e7bf 8f3d 502d 57bc 852c 273d
00000090: e81c a63c 5733 6f3d 7f02 973d 14b5 d9bd
000000a0: 7037 0bbe 11f3 343d c164 b43c 2186 0abe
000000b0: 22e1 733e 06fe 3fbe 029c 893d 4f50 26be
000000c0: db4b c63d 9903 f63d d3e8 04be 141f 8c3d
000000d0: c259 083d c33e a53d efab 4abe 730a d5bd
000000e0: b244 7d3b 42eb 7f3b d1b9 ff3d be04 d9bd
000000f0: 98e4 7bbc 3dbd d03c 20ee c93d ff1e 8b3b
00000100: fa62 643e a91d dbbd 9344 b63d 18bc 743d
00000110: 3c5d 8d3d b98d 413e ca5b 6ebe 4e7e b0bd
00000120: 18a9 efbd f1ed 043e 6eb0 a83d 5fa1 f0bd
00000130: 32bf 51bd d49c a9bd fb4a a13d 1707 55bd
00000140: b556 22bd 9414 cebd bb77 fabd 1102 a0bb
00000150: dc76 b13d 7fe8 1fbe 26c8 00be 7065 73bd
00000160: 85b7 f2bd 499e 273e 8e59 d6bd 2920 2fbd
00000170: ca0c 17be ecc4 1c3d 3b33 053e 410c 08be
00000180: cf95 9dbd 5cb3 eebd ed7f 76bc c44b d43d
00000190: 5736 1ebe 1047 5bbe 8eaf 40bd 403f d4bb
000001a0: 8747 1e3e 2c92 d2bd 958f 25be dbea 45bd
000001b0: e735 a7bc 7a15 ac3d 1947 25bd 9c56 e3bd
000001c0: 53c4 90bc 766b 90bd b497 0d3e 8414 1dbe
000001d0: ba30 3abd a0cf 07be 1965 0fbb 8a5f e73d
000001e0: 1b34 0c3d 166c 33be db14 7d3a 5261 c43c
000001f0: cc54 28bd 8450 85be 825e e43c 28b5 6abd
00000200: 6d13 13be 80e1 c03d ffed 8cbd a60f 063e
00000210: 6ad8 4cbe 1265 173d 63cb 0c3e 21df bfbd
00000220: 1d1d df3d 1e95 20be bb2a 13bd e22a fb3d
00000230: d33b 8ebc c009 f5bd f25e eebd f010 1dbd
00000240: 8f56 96bd ce4a 8d3d c478 71be 9376 4dbd
00000250: e66b 15bd a915 50bd c8f4 84be 43cf ef3d
00000260: d5ea cdbb f11b 27be 49a7 d63d eb5c 5ebd
00000270: 23af fa3d bddc 23be a642 b9bd 460c 0d3e
00000280: a4e3 ee3c 7b97 b53b e413 14be 5f63 9bbe
00000290: e0fe 50be 4e6e 73be 7d6b a33d 84c6 2e3d
000002a0: 2c0b 7d3d 6013 343d 0329 fabd 3988 0b3b
000002b0: e8ba e93d bd26 933d d8fc 963d caef 5ebe
000002c0: 8aee 273d fc0a aa3d be2c c83d f364 9f3d
000002d0: cfac 41bb aa05 203d e469 98be a4ab 2ebe
000002e0: 4ebb 56bd 99c1 313d 817a 41bd 6ba3 94be
000002f0: 81c4 46be fb36 81bd 2248 4cbe a757 bf3d
00000300: 159a 7c3d 37ed a33d 3572 b13d dbbc 4ebe
00000310: 5ca6 3fbb f31b 873d 141b 963d 6f4a 283d
00000320: e3e1 93be 28ed 24bd 9ff9 d13d 778c 7ebe
00000330: 47df 243d d996 e13d f520 a8bd 7f9b fdbc
00000340: 55c0 d53c 2b87 1dbd a53e b13d cbf6 84be
00000350: 6eec 073d b287 a63d 185b 6cbe 731b 843d
00000360: d4fc 5ebe e52e 793d 407e 3d3d 4eca 0ebe
00000370: 18a1 56bc 13ef 143e 6399 66bd 2b68 27bd
00000380: 5b36 d83d 8d66 ccbd 06fd 8d3d 862c 1dbd
00000390: bdce 66be d922 2a3e d518 033e 8bc5 963d
000003a0: 4107 5d3d 489d e43d 575b 073d eb70 563d
000003b0: 9d9b 82be bf7e 643d be3c 803d 64e9 c9bd
000003c0: d5c9 873e 4d2a 35be f100 63bc b623 2d3c
000003d0: 29c4 a03b 6475 08be 11fc c4bd d39f 9b3d
000003e0: d7fe 5bbe eaa9 f43b 2e4e e8bd 5c9c 0f3e
000003f0: 555e f9bc f35c e63d 4879 1d3e 380b dcbd

bias f4 [16]
-1.9628267e-05 1.1793669e-05 -1.302033e-05 7.011574e-06 1.0136133e-05 2.8807885e-06 -5.832194e-07 4.255644e-06
1.0993315e-05 2.6258509e-05 -2.5425865e-05 3.2377118e-06 7.998054e-06 2.4594679e-06 8.701289e-06 -4.56659e-06
00000000: 62a7 a4b7 6cdd 4537 e471 5ab7 f644 eb36
00000010: 5c0e 2a37 9253 4136 888e 1cb5 b4cb 8e36
00000020: ee6f 3837 b845 dc37 a149 d5b7 7747 5936
00000030: 612f 0637 560d 2536 c0fb 1137 b63a 99b6

weight f4 [16]
1.0464293 0.97797614 1.0015022 0.9928674 0.9968443 1.0572451 0.9014378 1.1931825
1.0204982 0.9603438 1.1081618 0.8372365 0.91870683 0.9373615 0.94836295 1.1770087
00000000: 65f1 853f a55c 7a3f 3931 803f 8f2c 7e3f
00000010: 3031 7f3f cf53 873f a1c4 663f 34ba 983f
00000020: af9f 823f 17d9 753f 3fd8 8d3f 2255 563f
00000030: 5f30 6b3f ecf6 6f3f eac7 723f 39a8 963f

bias f4 [16]
-0.19722483 -0.055920098 0.10225675 -0.04249695 -0.022403823 -0.19897242 -0.061110213 -0.086890966
0.0021118387 -0.167265 -0.084611095 -0.08827655 -0.08274067 -0.1325084 0.11871775 -0.3656114
00000000: 4ef5 49be 790c 65bd fd6b d13d 4811 2ebd
00000010: 3988 b7bc 6dbf 4bbe b44e 7abd e4f3 b1bd
00000020: c666 0a3b 8447 2bbe 9548 adbd 56ca b4bd
00000030: f173 a9bd 48b0 07be 4b22 f33d 6b31 bbbe

running_mean f4 [16]
-0.19309478 0.0072825043 -0.63644934 -0.5622708 -0.5530159 -0.24402739 0.03007094 -0.6864057
-0.62747544 -0.10590966 -0.69570196 -0.47759408 -0.04770665 0.058255263 -0.49286997 -0.3733176
00000000: a3ba 45be 13a2 ee3b 58ee 22bf fbf0 0fbf
00000010: 7392 0dbf 51e2 79be 5557 f63c 49b8 2fbf
00000020: 3ba2 20bf 2ae7 d8bd 8619 32bf 3687 f4be
00000030: 0c68 43bd 129d 6e3d 7459 fcbe 7c23 bfbe

running_var f4 [16]
0.78350544 0.7253037 1.1587118 1.3021722 1.1425998 1.1523249 0.68347424 1.3588555
1.5502037 1.0080559 1.5534205 0.8461672 0.8809272 0.57749045 0.94075435 0.94675213
00000000: d093 483f 81ad 393f ab50 943f 94ad a63f
00000010: b640 923f 627f 933f 2bf8 2e3f faee ad3f
00000020: 136d c63f fa07 813f 7cd6 c63f 6a9e 583f
00000030: 7284 613f 6ad6 133f 47d5 703f 595e 723f

weight f4 [16, 400]
0.015658602 0.009296187 0.006886144 -0.00032447075 0.0071129007 0.00026215063 0.01055124 0.0033322615
0.014230051 0.00675124 0.00039185406 0.020442257 0.01115366 0.011361671 0.0031533234 0.016327593
-0.0021255526 -0.006244376 0.01430364 0.0075632012 0.00037543345 0.001106873 0.014727124 -0.0029537994
0.011317099 -0.0009455493 0.0069097197 0.008812261 0.010755841 0.0032114529 0.018678378 -0.000472766
0.00198594 0.012163015 0.017306944 0.0020885298 0.0037884323 0.03476304 0.0007977381 -0.00953262
0.011723209 -0.0021829393 -0.012814382 0.014004959 0.010041857 0.0014060738 0.005059497 0.011630003
-0.0013142104 0.0042122225 -0.0032605005 -0.0010152628 0.009880727 0.0105570275 0.008050858 0.001884636
-0.0028279114 0.005508377 -0.00017394124 0.00023141515 0.009130162 -0.0019212605 0.0031662232 -0.008286025
-0.00056231586 0.004937196 -0.0025325695 0.0056605903 0.008718856 0.005945986 -0.004962296 0.007882685
0.0036465116 0.010930228 0.0038011905 -0.0036068598 -0.00011401167 0.006734048 0.00054163026 0.00223333
0.010108755 0.00037906138 0.0064563965 0.0006799256 0.011095615 -0.0017502 -0.0008633586 0.006621906
0.0074720276 0.0026305642 -0.0037578086 -0.0099754445 -0.00037782025 0.0075029605 0.0049198936 -0.0007755168
0.007770452 0.0025241903 0.00029567254 -0.0053858547 0.005781375 1.436136e-05 0.002476384 -0.008110794
-0.0049755094 0.000626622 -0.015289696 0.0008031603 -0.008604064 -0.001879729 -0.0032434312 0.0006287882
-0.0011906602 -0.008852955 -0.010599342 -0.008452495 -0.0020963287 0.0026575024 -0.00812049 0.00377917
-0.006642353 -0.010221849 -0.0070228735 0.002101425 -0.0022166295 0.009728287 0.011450258 0.008889109
0.0038906485 0.013211492 0.01071048 0.012528718 0.0076016914 0.011126401 -0.0045945984 -0.006472837
0.0046484857 0.010108055 0.005068156 0.0038784218 0.012033905 0.015864868 -0.0018300114 0.0063552777
0.009843862 0.0011483238 0.0043971497 0.000480026 -0.013356981 0.01192895 0.0032969713 0.014096216
0.00448018 0.0172968 0.007766657 0.016818985 0.010272997 0.0052943127 -0.0002753407 0.021282626
-0.0008037576 -0.0003379483 0.010842763 0.01168126 0.013374013 0.0037574107 -0.0019710416 0.0072852946
0.0045824833 -0.00019589502 -0.0039803176 0.013655131 0.0015148326 0.010903641 0.006212079 -0.0029669185
-0.011782178 -0.012877992 -0.00626146 -0.0036179537 -0.016361186 -0.0127561055 -0.015086163 0.0009779187
-0.011076033 -0.0077348263 -0.004232376 -0.0077305445 -0.008377251 -0.0033001667 -0.012615485 0.0021187891
0.010387116 -0.006507433 -0.005740288 -0.012820819 0.0017810186 0.0029805119 -0.0058052796 -0.0058975033
-0.0043378114 0.0060473406 0.010250637 0.006850236 0.007367338 -0.0018136118 0.0025807782 0.0049574934
0.01361585 0.0013480406 -0.0016006995 0.0013622652 0.0018588139 -0.0039986316 0.0072626784 0.004310449
0.004818328 -9.683886e-05 0.00012294757 0.0077052256 -0.008295666 -0.0006314486 0.006411993 0.004587563
0.004243919 0.0017901591 0.007709139 -0.005216483 -0.008852803 0.00090102735 0.008733292 0.012703873
-0.004832416 -0.0016791251 0.010919946 -2.3849561e-05 0.005873078 0.0036406599 0.018632162 0.0032092282
0.0028523952 0.0053255004 0.008615351 0.009889186 -0.0032288167 0.0014376994 -0.008875951 -0.0052989367
0.005633211 0.0063592116 -0.0033416979 -0.006977162 0.0027777925 -0.0041616694 -0.0012016703 -0.00020385592
00000000: 7846 803c 094f 183c 2aa5 e13b ba1d aab9
00000010: 5613 e93b 4371 8939 1cdf 2c3c 1262 5a3b
00000020: 2925 693c 8239 dd3b c371 cd39 8576 a73c
00000030: d7bd 363c 4d26 3a3c fda7 4e3b 72c1 853c
00000040: db4c 0bbb 9f9d ccbb d159 6a3c bbd4 f73b
00000050: d3d5 c439 7f14 913a 094a 713c 8894 41bb
00000060: 5b6b 393c bdde 77ba ee6a e23b 4d61 103c
00000070: 4439 303c 3d77 523b 6603 993c 94dd f7b9
00000080: 8b26 023b 6247 473c 4bc7 8d3c b7df 083b
00000090: 5947 783b b063 0e3d 4c1f 513a b52e 1cbc
000000a0: b412 403c a50f 0fbb 6af3 51bc 0e75 653c
000000b0: 9a86 243c 024c b83a 23ca a53b c58b 3e3c
000000c0: 9541 acba af06 8a3b 1fae 55bb 9112 85ba
000000d0: c6e2 213c 62f7 2c3c bfe7 033c e405 f73a
000000e0: 7b54 39bb 9e7f b43b ff63 36b9 08a8 7239
000000f0: ad96 153c ced2 fbba 6980 4f3b 1cc2 07bc
00000100: 6168 13ba 34c8 a13b 77f9 25bb 797c b93b
00000110: 88d9 0e3c 8cd6 c23b c29a a2bb 6126 013c
00000120: 50fa 6e3b b314 333c 651d 793b 1161 6cbb
00000130: 8d19 efb8 4aa9 dc3b 31fc 0d3a 0f5d 123b
00000140: 319f 253c c2bc c639 2e90 d33b 093d 323a
00000150: 62ca 353c f866 e5ba 0453 62ba 93fc d83b
00000160: e9d7 f43b 8b65 2c3b 9145 76bb 0c70 23bc
00000170: 2d16 c6b9 65db f53b 0f37 a13b 0d4c 4bba
00000180: 479f fe3b e36c 253b 7f04 9b39 d37b b0bb
00000190: b071 bd3b 92f1 7037 d44a 223b 23e3 04bc
000001a0: 9909 a3bb e443 243a a281 7abc 2d8b 523a
000001b0: 0ff8 0cbc 3d61 f6ba bf8f 54bb 43d5 243a
000001c0: ed0f 9cba fc0b 11bc dda8 2dbc 557c 0abc
000001d0: 8f62 09bb 7e29 2e3b ce0b 05bc f4ab 773b
000001e0: 18a8 d9bb 8b79 27bc 2220 e6bb 10b8 093b
000001f0: df44 11bb 6563 1f3c dd99 3b3c a0a3 113c
00000200: 40fa 7e3b 0475 583c 027b 2f3c 4145 4d3c
00000210: 9c17 f93b 824b 363c 498e 96bb 181a d4bb
00000220: 5352 983b 419c 253c c612 a63b 1f2d 7e3b
00000230: db29 453c 0af7 813c fedc efba ef3f d03b
00000240: 2648 213c 5a83 963a f715 903b 00ac fb39
00000250: 3dd7 5abc a571 433c 0012 583b d1f3 663c
00000260: 79ce 923b 05b2 8d3c 717f fe3b f8c7 893c
00000270: 1350 283c ea7b ad3b 9a5b 90b9 e758 ae3c
00000280: 42b3 52ba a72e b1b9 d8a5 313c c162 3f3c
00000290: ad1e 5b3c e43e 763b 972c 01bb 7bb9 ee3b
000002a0: a828 963b 2b69 4db9 536d 82bb c5b9 5f3c
000002b0: 598d c63a 2fa5 323c b28e cb3b a270 42bb
000002c0: 090a 41bc 37fe 52bc ef2c cdbb 311b 6dbb
000002d0: e507 86bc fcfe 50bc f42b 77bc 822d 803a
000002e0: 4078 35bc 6d74 fdbb beaf 8abb 8250 fdbb
000002f0: bd40 09bc 9c47 58bb 2eb1 4ebc 62db 0a3b
00000300: b92e 2a3c 4e3c d5bb 0719 bcbb 6a0e 52bc
00000310: 1171 e93a b154 433b 373a bebb d83f c1bb
00000320: 3324 8ebb c528 c63b 4af2 273c f277 e03b
00000330: b669 f13b b7b6 edba 4622 293b 7872 a23b
00000340: 0415 5f3c bdb0 b03a 90ce d1ba 098e b23a
00000350: 72a3 f33a f406 83bb c3fb ed3b ab3e 8d3b
00000360: 11e3 9d3b f815 cbb8 7deb 0039 1e7c fc3b
00000370: 8cea 07bc cc87 25ba b21b d23b 4553 963b
00000380: 9310 8b3b c6a3 ea3a f29c fc3b 08ef aabb
00000390: 590b 11bc ec32 6c3a 1516 0f3c e823 503c
000003a0: 3e59 9ebb 1716 dcba 93e9 323c 8b10 c8b7
000003b0: f372 c03b 2398 6e3b 7aa2 983c ea51 523b
000003c0: 40ef 3a3b 8981 ae3b 6727 0d3c 4106 223c
000003d0: 8e9a 53bb 3071 bc3a 706c 11bc b4a2 adbb
000003e0: cd96 b83b ef60 d03b 6300 5bbb ada0 e4bb
000003f0: a00b 363b 9d5e 88bb 5d81 9dba 28c2 55b9

bias f4 [16]
-0.0017578321 -0.13224687 0.24426861 -0.10366033 0.2986318 -0.048347026 0.23201181 0.25479114
0.0009198174 0.23600434 0.00032969253 -0.07281378 -0.10459902 -0.088841125 -0.14748544 0.23982051
00000000: 0f67 e6ba b96b 07be 8d21 7a3e de4b d4bd
00000010: 44e6 983e 8807 46bd 8194 6d3e fc73 823e
00000020: e71f 713a 1fab 713e 95da ac39 641f 95bd
00000030: 0338 d6bd 56f2 b5bd 6c06 17be 8293 753e

weight f4 [4, 16]
-0.042668846 -0.1983639 0.3368759 -0.09688145 0.29993126 -0.42442715 0.5010495 0.50529253
-0.0037601267 0.28246656 -0.004894523 -0.008737259 -0.21561576 -0.41175014 -0.44013393 0.3833684
0.021909619 0.10538477 -0.16907297 0.30982578 -0.27698705 0.11770655 -0.13384639 -0.18473296
0.014874835 -0.2394369 -0.0033661409 0.2505264 0.3573919 -0.0059225247 -0.01974372 -0.14927232
-0.0173727 0.24680543 0.26178825 -0.17366065 -0.44222102 0.0867893 -0.21874012 -0.33802614
0.015703598 0.22162318 0.0006123953 -0.06793755 0.15572204 -0.17643242 -0.011901246 -0.27829334
-0.009532447 0.35836068 -0.47276115 -0.3445382 -0.5858432 -0.2535166 -0.5293682 -0.52947164
0.085830845 -0.3965884 0.0039630095 -0.41955718 -0.12850969 0.43578666 0.0030327656 -0.5074951
00000000: 87c5 2ebd e81f 4bbe ff7a ac3e c869 c6bd
00000010: 9790 993e 844e d9be c844 003f da5a 013f
00000020: 756c 76bb 759f 903e 3c62 a0bb b826 0fbc
00000030: 61ca 5cbe ead0 d2be 3c59 e1be dd48 c43e
00000040: cd7b b33c f8d3 d73d 7721 2dbe 7ca1 9e3e
00000050: 3fd1 8dbe 2210 f13d 070f 09be a32a 3dbe
00000060: 94b5 733c f22e 75be 799a 5cbb ff44 803e
00000070: 12fc b63e bd11 c2bb 95bd a1bc d8da 18be
00000080: 3151 8ebc 90ba 7c3e 1c09 863e 19d4 31be
00000090: cb6a e2be 97be b13d 69fd 5fbe c311 adbe
000000a0: d5a4 803c 30f1 623e 2789 203a d822 8bbd
000000b0: 9975 1f3e b3aa 34be 72fd 42bc 777c 8ebe
000000c0: fb2d 1cbc 0d7b b73e c00d f2be 5067 b0be
000000d0: d2f9 15bf eecc 81be ad84 07bf 748b 07bf
000000e0: 15c8 af3d a20d cbbe 22dc 813b 33d0 d6be
000000f0: 0b98 03be 6e1f df3e 5dc1 463b 33eb 01bf

bias f4 [4]
-0.12759063 -0.5490568 0.21955512 0.14641747
00000000: 1ea7 02be fd8e 0cbf 0fd3 603e 76ee 153e
