EMG_recording/model_parameter/dropout10_with_model.pth (torch, 23075 bytes, 16 tensors)

weight f4 [4, 1, 7]
0.27257007 -0.039662864 -0.25724265 0.013308724 0.032434147 0.03903677 0.13983876 0.0962124
0.082301214 -0.20101394 -0.1125411 -0.16587228 0.03156637 0.1561085 0.34424198 -0.066936605
-0.18446548 -0.31684077 0.066732325 0.23058103 0.01751677 0.10579607 0.059303004 -0.18281893
0.057358257 -0.3422015 -0.32236674 0.08484425
00000000: 4e8e 8b3e 8775 22bd 4fb5 83be d60c 5a3c
00000010: abd9 043d 05e5 1f3d e431 0f3e 020b c53d
00000020: 8a8d a83d 99d6 4dbe f37b e6bd 6cda 29be
00000030: bd4b 013d e8da 1f3e 7c40 b03e 0f16 89bd
00000040: 85e4 3cbe f438 a2be f5aa 883d 6f1d 6c3e
00000050: 547f 8f3c 9cab d83d b5e7 723d e334 3bbe
00000060: 7ef0 6a3d 0935 afbe 410d a5be d2c2 ad3d

bias f4 [4]
-3.1779065e-05 4.736611e-06 8.149867e-05 2.5135821e-05
00000000: 834a 05b8 2eef 9e36 44ea aa38 c4da d237

weight f4 [4]
0.7328299 0.15443656 0.75873387 1.0200489
00000000: be9a 3b3f 9e24 1e3e 623c 423f f690 823f

bias f4 [4]
-0.103263915 -0.3916253 -0.09124224 -0.39972493
00000000: 087c d3bd 1c83 c8be 36dd babd bfa8 ccbe

running_mean f4 [4]
0.041086208 -0.013534852 0.029384786 -0.120806865
00000000: 034a 283d 49c1 5dbc 5db8 f03c 9769 f7bd

running_var f4 [4]
16012.52 8676.209 1267.0701 157453.97
00000000: 1432 7a46 d690 0746 3e62 9e44 7ec3 1948

weight f4 [8, 4, 5]
0.026165294 -0.084475465 -0.26974612 -0.39152032 -0.10906572 0.060925968 -0.096467294 -0.1598644
-0.130872 -0.09684918 0.093719535 -0.101365015 -0.24559881 -0.43412116 -0.10060301 -0.123651505
0.024892911 0.106984764 0.23948027 0.022390157 -0.3153735 -0.1021019 0.086939104 0.1540837
0.08577152 -0.17804065 -0.008210573 -0.0041789114 0.045960378 -0.07560177 -0.28102982 -0.10348205
0.08120146 0.17882039 0.15195331 0.13933158 0.10410664 -0.40983278 -0.34775135 -0.23673749
-0.081402965 0.28485346 -0.16861422 0.06010294 -0.0834816 -0.18489197 0.09523 0.02741629
-0.00900452 -0.14433251 -0.16455826 0.21076536 -0.048229862 -0.03586443 0.07783244 0.11337322
-0.0876834 0.119846 -0.077875346 -0.6484195 0.13997863 0.078464724 -0.034075636 -0.36535886
-0.3129048 0.03643473 -0.082519695 -0.17205778 -0.17892002 -0.15150215 0.17263456 0.07792768
-0.006593774 -0.3400105 -0.36740804 -0.16591696 -0.2654159 -0.056033097 0.14128548 0.21699695
0.12463688 -0.387272 0.19652793 0.06794694 -0.3892068 0.030062962 -0.13438608 0.09432781
0.07687153 -0.12498774 0.12639 -0.36404684 0.090500414 0.09583483 -0.31392923 -0.16202389
0.12094145 -0.0985168 0.1652754 0.012814241 -0.023528058 -0.23066765 -0.07511554 0.05523287
0.16641897 -0.059606675 -0.14966765 0.091886915 0.028467517 0.04680774 -0.10107372 -0.25531805
-0.008733092 0.10001026 0.13222413 0.08545449 0.23608422 0.15977688 -0.53313226 -0.11171088
-0.3120028 0.0950929 0.12396833 -0.39221677 0.18117718 -0.1378698 0.047583666 0.004184895
-0.099140175 0.0431463 -0.2981489 0.08815336 0.09088168 -0.35456878 0.14890575 0.15118288
-0.1250883 -0.016604617 0.06757499 -0.11639411 0.26561347 -0.12107398 -0.028122656 -0.079111606
-0.1887548 0.18658385 0.013820956 -0.046090156 -0.1249012 -0.21014425 0.16782431 -0.062834434
0.004732321 -0.03115897 -0.11253481 0.15677376 0.040541317 -0.11113133 -0.5800429 -0.16408068
00000000: 9958 d63c 7901 adbd 2a1c 8abe 5a75 c8be
00000010: d95d dfbd 828d 793d a590 c5bd 7eb3 23be
00000020: 4f03 06be dd58 c6bd 07f0 bf3d 7698 cfbd
00000030: 417e 7bbe 2145 debe f308 cebd 003d fdbd
00000040: 38ec cb3c d41a db3d 513a 753e 906b b73c
00000050: a378 a1be cd1a d1bd 210d b23d 1ec8 1d3e
00000060: fba8 af3d 4a50 36be a485 06bc 40ef 88bb
00000070: f340 3c3d 1ad5 9abd 24e3 8fbe 66ee d3bd
00000080: f34c a63d b11c 373e a699 1b3e f0ac 0e3e
00000090: dd35 d53d 9ad5 d1be 770c b2be 506b 72be
000000a0: 99b6 a6bd 50d8 913e 35a9 2cbe 802e 763d
000000b0: 67f8 aabd 5254 3dbe f207 c33d 2198 e03c
000000c0: b287 13bc e7cb 13be f681 28be e0d2 573e
000000d0: ad8c 45bd 95e6 12bd 9d66 9f3d 3830 e83d
000000e0: 5b93 b3bd d271 f53d 1c7d 9fbd d2fe 25bf
000000f0: 8f56 0f3e 1db2 a03d e592 0bbd 5110 bbbe
00000100: 0f35 a0be 953c 153d 1600 a9bd ea2f 30be
00000110: cf36 37be 6123 1bbe 1dc7 303e 8c98 9f3d
00000120: 9610 d8bb db15 aebe e81c bcbe 23e6 29be
00000130: 98e4 87be f682 65bd 24ad 103e 7334 5e3e
00000140: 9f41 ff3d 8448 c6be 9e3e 493e c427 8b3d
00000150: 1d46 c7be 9a46 f63c 819c 09be f02e c13d
00000160: d26e 9d3d 92f9 ffbd 616c 013e 5964 babe
00000170: 4858 b93d 0d45 c43d 55bb a0be 97e9 25be
00000180: 27b0 f73d 2dc3 c9bd f43d 293e d3f2 513c
00000190: eabd c0bc 2434 6cbe 2dd6 99bd dd3b 623d
000001a0: bc69 2a3e 2126 74bd 7a42 19be 352f bc3d
000001b0: b634 e93c 79b9 3f3d bdff cebd 0cb9 82be
000001c0: 3e15 0fbc 2ed2 cc3d c365 073e c302 af3d
000001d0: 10c0 713e 8d9c 233e 5b7b 08bf adc8 e4bd
000001e0: d5be 9fbe 11c0 c23d 1ce3 fd3d a3d0 c8be
000001f0: 8386 393e be2d 0dbe 17e7 423d 7221 893b
00000200: 010a cbbd 2dba 303d f9a6 98be c089 b43d
00000210: 2d20 ba3d 0a8a b5be c07a 183e afcf 1a3e
00000220: 2617 00be 6806 88bc c264 8a3d 0960 eebd
00000230: 7dfe 873e a3f5 f7bd 7c61 e6bc 4405 a2bd
00000240: f048 41be d60f 3f3e 4b71 623c 08c9 3cbd
00000250: 33cc ffbd 0e30 57be 23da 2b3e 57af 80bd
00000260: 9611 9b3b 1941 ffbc a778 e6bd 4d89 203e
00000270: a70e 263d d398 e3bd b17d 14bf c404 28be

bias f4 [8]
3.7424288e-05 -0.00015586038 -0.00048084033 -0.00051896885 -3.350884e-06 0.00022053982 0.000155668 -0.00028631746
00000000: 06f8 1c38 746e 23b9 4c19 fcb9 690b 08ba
00000010: c0df 60b6 b540 6739 d03a 2339 e11c 96b9

weight f4 [8]
0.8507807 1.073099 1.0290695 1.1056161 1.0658826 1.0255721 1.0393927 1.075589
00000000: c4cc 593f 4f5b 893f 8db8 833f d484 8d3f
00000010: d76e 883f f245 833f d20a 853f e6ac 893f

bias f4 [8]
-0.098073155 -0.43953365 -0.3544718 -0.526475 -0.3920182 -0.24949017 -0.37264782 -0.40176687
00000000: 94da c8bd 8e0a e1be 547d b5be 11c7 06bf
00000010: 9cb6 c8be 5a7a 7fbe b2cb bebe 63b4 cdbe

running_mean f4 [8]
-0.43000624 -0.28199685 -0.18841854 -0.3560464 -0.23505405 -0.12884653 -0.21719927 -0.28721213
00000000: c729 dcbe e461 90be caf0 40be b74b b6be
00000010: 02b2 70be 58f0 03be 7c69 5ebe 780d 93be

running_var f4 [8]
0.6156915 0.68013525 0.5491597 0.7663766 0.53529984 0.56674004 0.5458216 0.5595168
00000000: f59d 1d3f 581d 2e3f bb95 0c3f 4231 443f
00000010: 6909 093f e015 113f f7ba 0b3f 7e3c 0f3f

weight f4 [16, 200]
-0.01932991 0.052317306 0.077612504 0.068920955 0.03065891 0.075448446 -0.011178434 0.0070861513
0.0043063043 0.034321774 0.008380968 0.048529223 0.042766012 0.027485738 -0.059197072 0.07679715
0.03618603 0.01869799 0.03956188 0.04707287 0.025745977 0.055323444 -0.009317117 0.06838863
0.094824575 0.009178954 -0.14679949 -0.106285684 -0.15461852 -0.13218571 0.16484517 -0.08495706
-0.04208502 -0.17809762 -0.09973803 0.020525489 -0.21976925 -0.20889753 -0.007552097 -0.062606275
-0.14767812 -0.055576235 -0.22255477 -0.22546056 -0.11941996 -0.17193764 -0.074383974 -0.28846332
-0.082709916 -0.15480281 -0.043499123 -0.1417699 -0.13569748 -0.10882221 -0.11689511 -0.20485641
0.0068947524 0.0725671 -0.19088325 -0.034689646 0.13609926 -0.20045191 -0.17160143 -0.029409433
-0.016878871 -0.17030832 -0.0291663 -0.12818326 -0.050656665 -0.19966969 -0.1498712 -0.02649882
-0.16445842 -0.12510796 -0.14420554 -0.110340156 -0.0038178347 -0.13067663 -0.02932304 -0.09631575
-0.10299105 -0.033920925 0.022003649 -0.11541087 0.070805885 0.02312867 -0.21499786 -0.17282988
-0.088211365 -0.019563532 -0.12777616 0.08050553 -0.12950863 -0.17488098 -0.1467028 -0.061031517
-0.07526098 -0.17940736 -0.20461813 -0.024200888 -0.26787475 -0.17926928 0.013486542 0.013525169
-0.07526958 0.022665631 0.07454033 -0.21099514 0.059154984 -0.05872759 0.039500006 -0.0605208
-0.110196635 0.026537266 -0.047935728 -0.14320618 0.15478483 -0.05027936 -0.34519786 0.18633464
0.14461304 -0.21819505 -0.15963933 0.021016834 -0.2537286 -0.14816867 -0.18788773 -0.16864601
-0.24784859 -0.2950183 -0.119357705 -0.067019805 -0.14977808 -0.18858899 -0.10030373 0.014321617
-0.22846866 -0.07754337 -0.06867318 -0.118231766 -0.08149878 -0.12598954 -0.2188423 0.01002167
-0.13553451 -0.07501577 -0.19553176 -0.06854397 -0.32818183 -0.30881768 -0.09834233 -0.09766258
-0.095099136 -0.17228436 -0.06739799 -0.17327973 0.052010637 -0.10566674 -0.2949163 -0.021372313
0.11453195 -0.054856133 -0.13865387 -0.05124562 -0.010395788 -0.13515002 -0.06292318 -0.21346113
-0.09600844 0.06187099 -0.12154301 -0.009690362 0.00021658983 -0.16336511 -0.32697976 -0.14831367
0.10750948 -0.030863088 0.08998316 -0.024719663 -0.07428532 0.01320687 -0.0333164 -0.03209484
0.058159273 0.01823641 -0.077192865 -0.100335315 -0.016828172 0.043874715 -0.002470773 0.17807743
-0.035056908 -0.10411416 -0.023523215 0.06419795 0.121254 -0.17246734 0.16469093 -0.06347531
-0.05195532 0.10462369 0.023073712 0.11282586 0.0247203 0.05715412 0.038461573 0.065796584
0.018503532 0.04643599 0.05279688 -0.013961786 0.016659118 0.09702585 0.027380608 0.0012384497
0.070831105 0.026524987 0.09571667 0.07294858 0.039005745 0.08218344 0.025531856 -0.0014619788
0.106355436 -0.09254615 -0.11198385 -0.08756698 -0.1422456 -0.14916174 0.19329219 -0.048518576
-0.009619883 -0.15960345 -0.10352683 -0.029011948 -0.15770234 -0.17949542 -0.018003974 -0.061049294
-0.18077964 -0.1276896 -0.3420165 -0.19396293 -0.10057781 -0.20709942 -0.13024053 -0.28747064
-0.16791697 -0.1493072 -0.05804781 -0.11954792 0.03509712 -0.12733759 -0.123796396 -0.15596543
00000000: c259 9ebc ac4a 563d 4ef3 9e3d 6e26 8d3d
00000010: 6528 fb3c b784 9a3d c025 37bc f232 e83b
00000020: e61b 8d3b fd94 0c3d 5450 093c 94c6 463d
00000030: 6a2b 2f3d c529 e13c a178 72bd d347 9d3d
00000040: cd37 143d 872c 993c a30b 223d 7bcf 403d
00000050: 3ae9 d23c d69a 623d d2a6 18bc 570f 8c3d
00000060: 6333 c23d 5363 163c 9b52 16be 4fac d9bd
00000070: 5154 1ebe b15b 07be 2ccd 283e f8fd adbd
00000080: 5861 2cbd 395f 36be 7443 ccbd 1225 a83c
00000090: 310b 61be 3ce9 55be 9577 f7bb b837 80bd
000000a0: ef38 17be e8a3 63bd 66e5 63be 22df 66be
000000b0: 7492 f4bd 6c10 30be a056 98bd 77b1 93be
000000c0: d163 a9bd a184 1ebe 232c 32bd 212c 11be
000000d0: 48f4 0abe 2ede debd b466 efbd e1c5 51be
000000e0: 60ed e13b 0f9e 943d e676 43be bb16 0ebd
000000f0: 9b5d 0b3e 4443 4dbe 49b8 2fbe 0dec f0bc
00000100: 8f45 8abc 4e65 2ebe 2aee eebc 7942 03be
00000110: 5d7d 4fbd 3676 4cbe d677 19be 0e14 d9bc
00000120: ca67 28be 4d1c 00be 9eaa 13be 05fa e1bd
00000130: a334 7abb 18d0 05be df36 f0bc 3141 c5bd
00000140: f9ec d2bd abf0 0abd ff40 b43c 895c ecbd
00000150: ad02 913d 5678 bd3c 6628 5cbe 51fa 30be
00000160: 29a8 b4bd b343 a0bc c1d7 02be 15e0 a43d
00000170: e99d 04be 0014 33be 4239 16be 2ffc 79bd
00000180: 6e22 9abd 90b6 37be 6a87 51be f140 c6bc
00000190: e126 89be 5e92 37be a8f6 5c3c ac98 5d3c
000001a0: f026 9abd 46ad b93c 9aa8 983d 1c0f 58be
000001b0: 7f4c 723d 578c 70bd c2ca 213d a9e4 77bd
000001c0: c6ae e1bd ae64 d93c 4158 44bd a4a4 12be
000001d0: ea7f 1e3e bbf1 4dbd c6bd b0be 82ce 3e3e
000001e0: 7115 143e 866e 5fbe 7e78 23be 7f2b ac3c
000001f0: b7e8 81be 87b9 17be a465 40be 8ab1 2cbe
00000200: 05cc 7dbe a30c 97be d071 f4bd ae41 89bd
00000210: 6d5f 19be 791d 41be 0b6c cdbd 37a5 6a3c
00000220: b0f3 69be 0fcf 9ebd 86a4 8cbd 7f23 f2bd
00000230: d5e8 a6bd 6703 01be 3218 60be ee31 243c
00000240: 8fc9 0abe dea1 99bd 7a39 48be c860 8cbd
00000250: 7307 a8be 5a1d 9ebe b467 c9bd 5203 c8bd
00000260: 56c3 c2bd 506b 30be f507 8abd 3e70 31be
00000270: 1b09 553d ce67 d8bd 45ff 96be fd14 afbc
00000280: ba8f ea3d d3b0 60bd 48fb 0dbe ede6 51bd
00000290: 1853 2abc c464 0abe dedd 80bd 8e95 5abe
000002a0: 13a0 c4bd 6f6c 7d3d 8beb f8bd 53c4 1ebc
000002b0: 641c 6339 2f49 27be e469 a7be 8adf 17be
000002c0: ee2d dc3d 96d4 fcbc 1749 b83d e480 cabc
000002d0: e722 98bd a161 583c c776 08bd e175 03bd
000002e0: 6b38 6e3d 8664 953c 4b17 9ebd 9a7c cdbd
000002f0: 3cdb 89bc f9b5 333d b1ec 21bb ee59 363e
00000300: d597 0fbd ce39 d5bd c2b3 c0bc 377a 833d
00000310: 0454 f83d 479b 30be bda4 283e 58ff 81bd
00000320: 1acf 54bd f244 d63d 1505 bd3c 3f11 e73d
00000330: 3a82 ca3c 701a 6a3d e289 1d3d 5cc0 863d
00000340: b894 973c aa33 3e3d 8b41 583d fabf 64bc
00000350: b478 883c 7db5 c63d 4c4d e03c 7a53 a23a
00000360: e60f 913d ee4a d93c 1a07 c43d 1166 953d
00000370: 7dc4 1f3d cb4f a83d 2f28 d13c de9f bfba
00000380: e1d0 d93d d688 bdbd ca57 e5bd 5156 b3bd
00000390: d5a8 11be dbbd 18be 63ee 453e 6abb 46bd
000003a0: b79c 1dbc 166f 23be e005 d4bd 77aa edbc
000003b0: b97c 21be a6cd 37be 127d 93bc d30e 7abd
000003c0: 4c1e 39be 10c1 02be c91c afbe 389e 46be
000003d0: bdfb cdbd df11 54be c65d 05be 5a2f 93be
000003e0: 6df2 2bbe fde3 18be 8ac3 6dbd 8ad5 f4bd
000003f0: ffc1 0f3d c964 02be f788 fdbd 67b5 1fbe

bias f4 [16]
0.5179481 0.5314666 0.10216792 0.19107778 0.6641572 0.2124037 0.20585561 -0.31010526
-0.26282042 0.035212163 0.65944225 -0.39055878 -0.044639662 0.4658535 0.014236548 0.2170549
00000000: 3f98 043f 320e 083f 6a3d d13d e5a9 433e
00000010: 3506 2a3f 5b80 593e d0cb 523e 1ec6 9ebe
00000020: 6690 86be a13a 103d 35d1 283f 52f7 c7be
00000030: 14d8 36bd 5a84 ee3e 6940 693c a443 5e3e

weight f4 [4, 16]
1.1260505 1.0472842 -0.24600409 0.13721478 0.4363502 -0.47727823 -0.5244396 -0.8475107
-0.7111531 -0.20110545 0.4358201 -0.7133336 -0.5714963 1.0691452 -0.14572345 -0.45588788
-0.08488752 -0.16499814 0.48658985 -0.6439862 -0.56916475 0.26290566 0.18480861 -0.04998704
0.0024646574 0.43625593 -0.45073187 -0.14856578 0.052616183 -0.03732338 -0.0037902594 0.25680014
-0.76722634 -0.77738786 -0.14769855 0.11548561 0.2579613 0.09439041 0.14912227 -0.019258328
-0.009812794 -0.13452053 0.263993 -0.1596409 -0.015278421 -0.72686094 0.061453663 0.06225465
-0.64752275 -0.7335892 -0.34380138 0.2829677 -1.0185165 -0.41824567 -0.44999248 0.033644065
0.035539754 -0.2408665 -1.0628366 0.37443548 0.05713885 -0.70798475 -0.054754447 -0.37114072
00000000: 6c22 903f 690d 863f 7fe8 7bbe 0882 0c3e
00000010: 4b69 df3e d05d f4be ac41 06bf 76f6 58bf
00000020: 210e 36bf 96ee 4dbe d023 df3e 089d 36bf
00000030: 954d 12bf c0d9 883f 8738 15be 236a e9be
00000040: 82d9 adbd 46f5 28be 4e22 f93e 48dc 24bf
00000050: c8b4 11bf 929b 863e 783e 3d3e 36bf 4cbd
00000060: 1786 213b f05c df3e 54c6 e6be a121 18be
00000070: 1184 573d 67e0 18bd 0066 78bb 4f7b 833e
00000080: f268 44bf e402 47bf 4a3e 17be b883 ec3d
00000090: 8113 843e c24f c13d 82b3 183e a4c3 9dbc
000000a0: d7c5 20bc c0bf 09be 172a 873e e778 23be
000000b0: 5852 7abc 8f13 3abf d6b6 7b3d bbfe 7e3d
000000c0: 0dc4 25bf 80cc 3bbf bc06 b0be 24e1 903e
000000d0: c05e 82bf 4c24 d6be 6a65 e6be 5cce 093d
000000e0: 2292 113d b5a5 76be 080b 88bf 02b6 bf3e
000000f0: 6d0a 6a3d 7d3e 35bf 3346 60bd 2806 bebe

bias f4 [4]
0.31368205 -0.38528186 0.06539187 -0.15918563
00000000: ef9a a03e aa43 c5be 2cec 853d 8f01 23be
