EMG_recording/model_parameter/dropout.pth (torch, 137507 bytes, 16 tensors)

conv1.0.weight f4 [8, 1, 7]
000000 f5 10 24 be 94 54 66 3e 4a bf 65 3e 46 70 e9 bd
       -0.16022094 0.22493201 0.22436252 -0.113983676
000010 b0 3f 81 3d 8f 3b e6 bd 26 b0 b7 bd 7c d8 0c bd
       0.063109756 -0.11241829 -0.089691445 -0.034386143
000020 1d 4d 0b 3e 60 4d af bd 73 17 24 3d 1b 5f f1 3c
       0.13603635 -0.0855968 0.040061425 0.029464295
000030 d9 d7 fb 3c 9b 34 ca 3d ee 2f 85 3c 78 22 be bb
       0.030742573 0.09873315 0.016258206 -0.005802449
000040 c3 65 4a bd c7 07 4c bd 0e 30 cd 3b 29 71 59 3c
       -0.049413454 -0.049812105 0.006261832 0.013271608
000050 2d 0a e8 bd 52 b0 40 bc 33 0d ec bd ac ba 01 bb
       -0.11330066 -0.011760788 -0.11525955 -0.0019795103
000060 ce ad b4 ba fb 34 32 3d bc 05 1a bc 70 c3 0a be
       -0.0013784708 0.043507557 -0.009400781 -0.13551116
000070 10 78 f9 bc f7 ce 0a be c2 11 ba 3c 0d 70 bb 3c
       -0.030452758 -0.13555513 0.022713546 0.022880578
000080 35 2c f6 3d 78 9f 56 3d 1b 86 81 3d c8 96 07 be
       0.120201506 0.052398175 0.06324407 -0.13241112
000090 6d e1 5e 3e 77 ae 12 3d 95 bb 51 3d f1 15 14 be
       0.2176568 0.035810914 0.051204283 -0.14461495
0000a0 4d de 5a 3d 8b d3 d7 3d d1 ae fb 3c 23 c8 f4 bb
       0.05343466 0.105383955 0.030723007 -0.007470147
0000b0 3b 1b ad bb 0b cf 82 3c 11 3e 60 3d 12 53 06 3d
       -0.005282787 0.015967866 0.05474669 0.032794066
0000c0 b2 11 a4 3d 01 92 89 3e b7 1b 44 be 54 f4 3d be
       0.080111876 0.26869205 -0.19151197 -0.18550235
0000d0 fd b7 6c be 40 c8 37 be 74 02 35 3e 8f 7c 9b 3e
       -0.23117061 -0.17947483 0.17676717 0.30368468

conv1.0.bias f4 [8]
000000 64 85 d0 b4 b6 98 2c b3 55 b9 8e 31 25 6b 04 32
       -3.8840074e-07 -4.018576e-08 4.1538137e-09 7.707773e-09
000010 f6 57 27 32 04 a7 3b b3 95 24 1f 31 0a 63 09 33
       9.740679e-09 -4.369123e-08 2.315834e-09 3.1987874e-08

conv1.1.weight f4 [8]
000000 91 32 0c 3f f0 a0 26 3f eb 33 17 3f 0b 35 1e 3f
       0.5476466 0.6508932 0.59063596 0.6179969
000010 c4 fa ba 3e ff 44 03 3f 4d d1 fc 3e 6e 0c 0f 3f
       0.36519444 0.51277155 0.49378434 0.5587834

conv1.1.bias f4 [8]
000000 27 9f d5 bd 79 54 0f bd 8d ce 6a bd 98 53 00 be
       -0.104307465 -0.03499267 -0.05732589 -0.12531888
000010 3c c8 5c bc 1b e3 70 bd 42 2e 3b bd 34 ea b8 bd
       -0.013475474 -0.058810335 -0.04569841 -0.09029046

conv1.1.running_mean f4 [8]
000000 06 78 a0 3c e1 fd b1 3c 60 e1 a1 bc 82 c5 d9 bc
       0.019588482 0.021727504 -0.019760787 -0.026583437
000010 39 d8 80 3a 7c b7 af 3c 8d 3a b1 3c ff df 3c bd
       0.0009830064 0.021449797 0.021634365 -0.046112057

conv1.1.running_var f4 [8]
000000 55 be 8e 45 ca 49 cc 46 c4 0d 95 46 93 49 df 46
       4567.7915 26148.895 19078.883 28580.787
000010 df 55 3d 46 a6 b1 9d 46 8f 66 ab 46 a2 69 07 46
       12117.468 20184.824 21939.28 8666.408

conv2.0.weight f4 [16, 8, 5]
000000 d8 6f 1b 3d b5 0e 16 bd 87 15 f7 bb 25 73 f8 bc
       0.03794846 -0.03663512 -0.007540408 -0.030328343
000010 78 72 8d bc 62 90 da bc c4 8a ea 3c 89 b3 90 bc
       -0.017266497 -0.026680175 0.028630622 -0.017663734
000020 e3 70 e1 bc f3 6a 89 bc 34 70 2a bc 8a 26 b5 3c
       -0.027519649 -0.01677463 -0.010402728 0.022113103
000030 0e 3f 55 3d c7 64 0e bc 53 c2 59 3d 6c 7f 5c bc
       0.052062087 -0.008691019 0.053163838 -0.013458114
000040 91 e3 d4 3d 72 fd a3 3d 05 45 bb 3d 6d c0 a4 3c
       0.10394967 0.08007325 0.09144024 0.020111287
000050 83 d1 6c bc 69 48 af bc 18 e7 8f 3c da 52 ec 3c
       -0.014454248 -0.021396833 0.017566249 0.0288481
000060 4e 40 49 3c cf 17 21 bd cf 6e cf bb ba 87 98 3c
       0.012283398 -0.039329346 -0.006330348 0.018619407
000070 15 68 f0 bb 6b cd 44 bc 0c 5d 57 bc 9f 47 49 bc
       -0.0073366263 -0.012011866 -0.013144743 -0.012285142
000080 98 cc a6 39 f3 03 04 bc 32 8d 95 bc 82 36 10 3d
       0.00031814422 -0.008057582 -0.018255804 0.035208233
000090 9c 56 c4 bb f8 fd 81 3c e5 31 e4 bc 22 ff 09 bd
       -0.00599177 0.015868172 -0.027855823 -0.03369058
0000a0 0b 56 c2 bc 57 40 8a bd b5 62 b6 3c d3 28 58 3d
       -0.02372267 -0.06750553 0.022263864 0.052773308
0000b0 0c 29 80 bd 30 38 2d bc 76 ca 9b bd 3f 9a 40 bd
       -0.06257829 -0.010572478 -0.07606976 -0.0470221
0000c0 a8 d3 6d bd 96 d5 cd bd af b8 cd 3c 4f 47 88 bd
       -0.05806318 -0.10050504 0.025112478 -0.06654226
0000d0 db 5c c2 bd 5f e6 11 bb cb 5f c2 bd ec 84 14 3d
       -0.09490367 -0.0022262556 -0.09490927 0.036259577
0000e0 44 4a 22 3d 84 65 a8 bd fd fc 2b bb 77 c1 46 bd
       0.039621606 -0.082224876 -0.0026243322 -0.048524346
0000f0 c4 44 82 bd 70 ea 33 bc 0f f9 bf bc 8e 18 61 bd
       -0.06360772 -0.010981187 -0.02343419 -0.054955058
000100 f9 e1 86 bd 9c 5f 4a bb 94 4f a6 bc 3e e9 c2 ba
       -0.065860696 -0.0030879742 -0.020301618 -0.0014870537
000110 57 3d 2f bc 02 ac d8 bc a6 b5 92 bc 36 7d ab bc
       -0.010695777 -0.026449207 -0.017908882 -0.020933729
000120 00 d5 6e bd 57 8b 9a bd 3f eb b1 bd c8 19 ee 3c
       -0.0583086 -0.07546108 -0.08687448 0.029065028
000130 46 a0 04 3d bb 59 b3 bd ae ef 81 bc 8e 6a 07 bd
       0.03237941 -0.08757349 -0.015861358 -0.033060603
000140 82 c2 ba bc 09 5d e8 3b 56 c2 01 3d 74 0c dd 3d
       -0.022797827 0.007091169 0.031679474 0.10793391
000150 54 51 52 3c d4 53 96 3d ab 7c 31 3d d0 57 cb 3d
       0.012836773 0.07340208 0.043331783 0.09928858
000160 76 e0 61 bd e4 c2 6a 3b 85 b1 90 3d c1 7a f6 bc
       -0.055145703 0.003582173 0.07065109 -0.03008783
000170 b2 10 17 3d 53 3a 02 bd 78 04 1c 3c 17 e0 29 bd
       0.036881156 -0.031793904 0.00952255 -0.041473474
000180 dd f2 57 bc 76 5c 66 3c 92 d6 29 bc 1b 39 a9 bb
       -0.013180462 0.01406013 -0.010366099 -0.005164278
000190 20 d0 9d bd ec 77 08 3d 4e 73 cc 3c 6d 5b 83 bc
       -0.07705712 0.03331749 0.024957325 -0.016034806
0001a0 13 40 51 bc 4f fa 15 3d 68 22 36 bc b5 3f 7c 3d
       -0.012771624 0.036615666 -0.0111166015 0.061584193
0001b0 15 a5 1f 3d 17 ef 07 3d 10 55 1b 3d 71 04 fd 3c
       0.038975794 0.033187 0.03792292 0.030885907
0001c0 be 1b 47 3d 81 e8 e6 3c bf ab 4a 3c 4c f1 1a 3d
       0.04861044 0.028187038 0.012370049 0.037827775
0001d0 4f 7b 40 3d b5 44 b8 3c 91 53 88 3d 69 b7 19 3d
       0.046992596 0.0224937 0.06656564 0.03752843
0001e0 d1 fd e0 bc ba e0 27 bd 06 0b 93 3d b3 2e 16 bd
       -0.02746478 -0.0409858 0.07179837 -0.03666563
0001f0 3e a8 e1 3c 22 25 f5 3d 8a 00 02 3d af da 9a 3d
       0.027546044 0.11969973 0.031738795 0.07561242
000200 eb d4 4d bd 05 04 c5 3d 09 67 33 3c 0a e5 7d bc
       -0.050251883 0.09619907 0.010949858 -0.015496502
000210 16 20 61 3d 07 84 24 3b 91 bb 4d 3d 0a 67 02 3c
       0.05496224 0.0025103108 0.050227705 0.007959137
000220 c4 37 b4 bc 30 d4 47 bc 20 65 45 3d 0a 0b 45 bc
       -0.021999247 -0.012196586 0.048192143 -0.012026558
000230 11 61 93 3c 5d 51 21 bd f6 d0 c6 3d 27 c8 03 bd
       0.01799062 -0.039384235 0.09707825 -0.032173302
000240 08 51 5c bb ba 7a 39 3d 3c ef 18 bb ba fb e8 3d
       -0.0033617634 0.045283057 -0.0023335954 0.11376138
000250 6d b0 8a bd 4c 9a 4e 3d fd e0 bb b9 d7 46 99 3c
       -0.06771932 0.050440118 -0.0003583505 0.018710537
000260 11 1a 76 3d 03 34 98 3d 5b d2 8a 3c 1a 35 ca 3c
       0.060083453 0.074317954 0.016946008 0.024683524
000270 86 01 b9 3c 41 bd c6 3b 11 25 58 3c 6a 54 3c 3b
       0.022583734 0.0060650413 0.013192431 0.0028736838
000280 28 2e cf ba 0f 53 79 3d de 6e 4f 3d 99 47 ec bc
       -0.0015806602 0.060870226 0.05064284 -0.028842734
000290 e2 59 02 3d ed 06 a1 3d c7 a6 a5 3d 53 32 45 3d
       0.031824 0.07862649 0.08088451 0.048143696
0002a0 d8 57 9b bd 92 fa ac 3d 8c 1c c1 bc dc 93 83 3d
       -0.07585114 0.0844623 -0.023573183 0.06424686
0002b0 fb 71 06 3b dd d1 5e bd bd df 75 bc 89 5b 0c bd
       0.0020514715 -0.05439936 -0.015006957 -0.034266982
0002c0 c6 b9 ab 3c 71 e6 4e bc ce 96 2b 3d 21 4e 43 bd
       0.020962607 -0.012628184 0.041891865 -0.04768193
0002d0 ff ff 3b 3d 0a 35 18 3d 03 78 8b 3d df 44 ea 3b
       0.045898434 0.037159957 0.0681 0.0071493234
0002e0 7c 54 91 bc c7 da b0 3d 72 d2 a4 3b 6d 86 61 3d
       -0.01774048 0.086354785 0.00502997 0.05505984
0002f0 6e 1c 79 bc 0d 50 ce bb 58 5f 8f 3d b5 91 2c 3d
       -0.015204532 -0.006296164 0.07000607 0.042131145
000300 87 ba 1b bd 4e c1 51 3d fa 58 83 3d b7 e2 a9 bc
       -0.038019683 0.05120974 0.06413455 -0.020737989
000310 3f c5 31 3c a7 6b 52 3d bb 20 1d bd 9c 9a 3d bc
       0.01085025 0.051372197 -0.038361292 -0.011572506
000320 d2 a5 2e 3d f2 92 7f 3b d7 c0 e6 3d e0 74 d3 bb
       0.042638607 0.0038997498 0.1126725 -0.0064531416
000330 4d b8 e9 3d 41 db 9f 3d ef 41 a8 3d 20 b7 2b b8
       0.11412106 0.07805491 0.08215701 -4.0940125e-05
000340 d8 78 d5 bc 5d d1 97 bd c9 a4 88 3d 6b 02 17 3d
       -0.0260586 -0.0741298 0.06672055 0.03686754
000350 ac 06 c8 3a 82 fa 48 3d a7 41 6d bd e5 aa 4d bd
       0.0015260777 0.049067028 -0.05792394 -0.050211806
000360 6f 70 a6 3b f4 ba 94 bd b7 85 bf bb 23 b3 9c 3c
       0.005079321 -0.07262221 -0.0058447975 0.019128388
000370 db 36 e6 bc 7a 3d 9f 3c fc f1 22 3d f0 ba 8e 3c
       -0.028102329 0.019438494 0.039781556 0.017423123
000380 db b1 39 bd 94 f0 0b bd 9c f6 c3 3d bb d7 5c 3d
       -0.04533563 -0.03416498 0.095685214 0.053916674
000390 4c 7d dc 3c c2 4f 2f 3c da 89 82 3d fd 22 39 bd
       0.026915215 0.010700168 0.06373949 -0.045199383
0003a0 5f 9b 26 bc 99 55 28 bd 19 f1 6d 3d d8 c6 1e 3d
       -0.010168879 -0.041097257 0.058091257 0.03876385
0003b0 68 fe 64 3d e7 08 e8 3c 09 04 fe 3c d5 f1 ae 3d
       0.055906683 0.028324557 0.031007783 0.085422195
0003c0 d1 df 8d bd df 8a 83 3c fa 50 17 3d f6 1b 18 bd
       -0.06927455 0.01605743 0.03694246 -0.03713604
0003d0 4c 93 dd 3d 8a 7c 26 bd 2d d2 2c bd 56 f7 15 3d
       0.1081911 -0.040646113 -0.042192627 0.03661283
0003e0 7b 19 70 bd d0 17 b0 3d 62 04 9b 3c 9b 5b 18 bd
       -0.05861805 0.08598292 0.018922988 -0.037196737
0003f0 69 18 21 3d 35 b6 90 bd f5 9b 27 bb 97 32 d9 3d
       0.03932992 -0.07066003 -0.0025575135 0.10605352

conv2.0.bias f4 [16]
000000 58 1f b6 36 c9 22 23 36 58 87 7d 36 d8 b6 db b6
       5.4276716e-06 2.430914e-06 3.7778718e-06 -6.5479944e-06
000010 c2 97 28 35 58 d2 73 35 d4 13 ff b6 15 6e 61 b7
       6.2805714e-07 9.0830645e-07 -7.6019005e-06 -1.34366755e-05
000020 6f 95 d3 b6 06 83 3e b7 3c 21 4e 36 98 ef 74 b5
       -6.3056864e-06 -1.1355389e-05 3.0715737e-06 -9.124574e-07
000030 d8 69 cc b3 4f 8f 35 b6 a9 43 48 35 41 2d ea 36
       -9.518743e-08 -2.7054518e-06 7.4604264e-07 6.9790117e-06

conv2.1.weight f4 [16]
000000 4e f8 15 3f eb fc 4e 3f eb 40 31 3f 9d c0 34 3f
       0.5858201 0.8085467 0.6923968 0.70606405
000010 2f 4a 23 3f 05 75 29 3f 1e 07 3b 3f 49 6a 4f 3f
       0.6378507 0.6619418 0.73057735 0.81021553
000020 78 4c 59 3f 36 32 6b 3f 72 fc 32 3f d1 30 32 3f
       0.8488231 0.9187349 0.6991645 0.6960574
000030 31 4f 4e 3f 53 b0 15 3f 47 29 2f 3f f5 7f 22 3f
       0.80589586 0.58472174 0.6842236 0.63476497

conv2.1.bias f4 [16]
000000 4e 86 23 bd f6 43 ff 3c b8 ce 53 bd 54 4e 4d bd
       -0.039923005 0.031160336 -0.051710814 -0.050123528
000010 40 d8 49 bd 60 8b 76 bd 1e 99 e3 bc a4 e4 d0 bc
       -0.049278498 -0.060191512 -0.027782973 -0.02549965
000020 cc ce 1a 3d 3d 51 58 3d 73 fc 55 bd 78 7f 5d bd
       0.037794873 0.05281185 -0.052242707 -0.05407664
000030 8d c9 ea 3c dc eb 5d bd fd f4 24 bd 4b cc 71 bd
       0.02866056 -0.05418001 -0.0402727 -0.05903272

conv2.1.running_mean f4 [16]
000000 99 30 f5 3c c0 d2 67 be f8 3b 0b 3e da db 11 3e
       0.0299304 -0.22638988 0.13597095 0.14244023
000010 af 46 f3 3d 6b 72 fe 3d 27 20 22 3e fa cf 18 3e
       0.11878716 0.12424167 0.15832578 0.14923087
000020 ee 81 8b be 7d 49 92 be 2b 4a 19 3e 88 57 06 3e
       -0.27247566 -0.28571692 0.14969699 0.13119328
000030 bb ed 5f be 02 30 da 3d df 4e 21 3e cc 5d ef 3d
       -0.2186803 0.10653688 0.15752743 0.11687812

conv2.1.running_var f4 [16]
000000 14 9f c1 3c 65 06 b1 3d 2d 4a 45 3d e8 48 4e 3d
       0.023635425 0.08643798 0.048166443 0.050362498
000010 52 66 61 3d a8 5c 21 3d a9 bd 5e 3d 17 8f 54 3d
       0.05502922 0.039395005 0.054380093 0.051894274
000020 aa 5e f6 3d 08 a3 f4 3d d3 44 79 3d 17 a1 2c 3d
       0.120297745 0.11945158 0.06085665 0.042145815
000030 51 b3 ba 3d 96 c1 1e 3d d1 f0 88 3d ae b0 2e 3d
       0.09116233 0.038758837 0.06686557 0.042648964

fc1.0.weight f4 [16, 2000]
000000 c8 12 5c bb 19 cd 2c 3c 2c 6d ae b9 3c dc 6a 3d
       -0.003358053 0.010546946 -0.00033269206 0.057338938
000010 cc 00 55 3d ae 34 98 3c 36 b9 33 bd 30 73 c3 bc
       0.052002713 0.018579807 -0.043877803 -0.023858637
000020 52 ef 61 bb 83 91 02 3c 00 44 d9 3c 9e 15 fa bc
       -0.0034474921 0.007969263 0.026521683 -0.030527886
000030 98 ec c6 bc 35 e1 87 bb b6 08 b8 3c 2a 2f d3 3c
       -0.024282739 -0.00414672 0.022465091 0.025779326
000040 2b cb ad bc 07 9d 0b bc 5f 4d ac 3c 54 ad 6b 3c
       -0.021215042 -0.008521325 0.021032987 0.014384586
000050 15 9c 02 3d 86 5a ef 3b 5e 91 7a bc c5 99 19 3b
       0.031887133 0.0073044924 -0.015293447 0.00234376
000060 17 b0 48 bc aa f3 93 bc 30 70 fd 3c eb 64 b7 3c
       -0.012249014 -0.018060524 0.030937284 0.022386989
000070 0c 75 80 39 02 74 a9 bc d2 c1 64 3c 37 36 a3 3a
       0.0002450127 -0.0206852 0.013962226 0.001245207
000080 96 d1 e0 3b c7 a4 f8 3b 6f e5 1a 3c 3e 62 01 bc
       0.006860922 0.0075880024 0.009454115 -0.007896958
000090 9b 96 e5 bb 50 ce 94 b9 fc bf 2b 3c b3 6e 8c 3c
       -0.007006479 -0.00028382475 0.010482784 0.01714263
0000a0 1d 10 14 3b 52 c0 25 3b 55 42 67 3c 9e 88 22 3d
       0.0022592612 0.0025291634 0.014114936 0.03968107
0000b0 ae 5a f0 3a 6e b4 00 bd 52 72 28 bc 94 c9 d7 3b
       0.0018337572 -0.03142207 -0.010281162 0.0065853093
0000c0 99 fd b1 3c 50 36 07 3c ac 26 73 bc 40 08 0a bc
       0.02172737 0.008252695 -0.014840763 -0.0084248185
0000d0 16 a2 ff 3a 84 18 35 bc 0e d5 3f bb 0c 79 12 bc
       0.0019503261 -0.011053208 -0.0029271278 -0.008939993
0000e0 32 e0 d4 3c 51 69 87 3b a9 04 a0 bc 8b bf 3c bc
       0.02598581 0.0041324277 -0.019533472 -0.011520277
0000f0 55 c7 85 bc 99 14 cf bc 68 67 db bb bc 85 7b 3c
       -0.0163304 -0.025278376 -0.0066956766 0.015351709
000100 5c e2 0e 3c 18 00 76 3c da 77 30 3c e7 e2 30 bc
       0.0087209605 0.015014671 0.010770762 -0.010796285
000110 44 0d a2 3c af 2d 66 bc 16 fd b4 bc 2b a5 7e 3c
       0.019781716 -0.014048978 -0.022093337 0.015542309
000120 68 af 1b 3c e3 d5 7d 3c 25 44 96 bc 0a d6 bc bb
       0.009502269 0.015492889 -0.01834304 -0.00576282
000130 82 10 38 bc ec 1a 96 3b 40 26 e4 bb 53 8c 41 bb
       -0.0112344045 0.004580846 -0.0069625676 -0.0029533103
000140 eb d4 42 3d 9c 69 9e 3c 75 fe 71 3c 67 09 a6 bb
       0.047566336 0.019337468 0.01477014 -0.005067039
000150 5b ac cb bb 89 a8 2c bc 84 df 10 ba a1 7a 85 3c
       -0.0062156147 -0.010538229 -0.00055264705 0.016293826
000160 a2 cf df 3c bc cc b1 bb f4 1c 45 bb 78 9f e1 3b
       0.027320687 -0.0054260176 -0.0030077072 0.0068854652
000170 49 0d 45 3c 4a 61 f1 bb 64 8e bc 3b f6 e6 bd 3c
       0.012027093 -0.007366334 0.005754279 0.02318142
000180 66 e2 8a 3b 02 0e ac bc a4 2c d3 bc 79 7e 27 bc
       0.0042384146 -0.021002773 -0.025778122 -0.0102230245
000190 e4 35 17 bc e7 a7 ec bb 82 e8 47 bc 72 3c f4 3c
       -0.009229157 -0.007222164 -0.01220143 0.029813979
0001a0 dd f7 d9 3c b8 48 50 3b 7a 2c 46 3c a6 67 c0 3c
       0.026607448 0.0031781625 0.012095565 0.023486923
0001b0 fe 4e 8c bb 25 c7 a6 bc 2e 4b 07 bb 3c b7 7a bc
       -0.0042818775 -0.020358631 -0.0020644176 -0.015302476
0001c0 fe dd 2e bc 77 be ac bc 4d 67 78 bc d2 0b 09 bc
       -0.010673044 -0.021086914 -0.015161348 -0.008364635
0001d0 78 1b b7 3c 31 86 34 3d df 7d 44 3c ec 8a 00 3b
       0.022351965 0.044073287 0.011992901 0.0019614054
0001e0 45 5b 8b 3c 34 13 91 bb fa 26 87 3a 5f 51 31 bc
       0.017011294 -0.004427338 0.0010311299 -0.010822623
0001f0 1e 54 00 3c 15 9c 07 3c 93 e9 b3 bc 76 94 c5 bb
       0.007832555 0.008276959 -0.021961963 -0.006029661
000200 5f c1 14 3d bf 4c f7 39 0c 42 d0 bb cb f0 c7 bc
       0.036317226 0.00047168692 -0.0063555297 -0.024406811
000210 55 3d 73 3b b3 ed a4 3c 65 fd d3 3c ff 42 91 3c
       0.0037115414 0.020132875 0.025877664 0.017732142
000220 c0 ad cc bb a4 50 b2 3a 4a 47 05 3c 83 e8 b1 bb
       -0.0062462986 0.0013604355 0.008134672 -0.005429329
000230 3e dc ab bb 2c 84 a9 3c a0 b8 17 3c 27 ed f5 3c
       -0.005244761 0.020692907 0.009260327 0.03002031
000240 33 2c 44 3c b5 00 01 3d a9 b2 d5 3c dd 10 0f 3c
       0.011973429 0.031494815 0.026086168 0.008732048
000250 3e 08 ff 3c d6 dc 8e 3c 39 12 9b 3c d5 f5 c6 3c
       0.03113186 0.017439287 0.018929588 0.024287144
000260 77 45 70 3c c7 db 45 3d 5e 4e 77 bc 55 2f 1e 3c
       0.014664999 0.0483053 -0.015094368 0.0096548395
000270 3b dd 38 3d d4 fb c5 3c 52 86 ef 3c 83 36 e4 3c
       0.045132857 0.024167933 0.029238854 0.027858024
000280 bc 88 12 3c 2d 1e 9a 3c 90 85 83 3c be 03 88 3c
       0.008943733 0.018813217 0.016054899 0.016603347
000290 5c 35 a7 3a 16 49 58 3a 38 cb 93 3c 31 1b 65 3c
       0.0012756991 0.0008250637 0.018041238 0.013983534
0002a0 9a f2 ec 3c c5 6e f5 3c ff 36 53 bc 9e 57 6c bb
       0.028924275 0.029960046 -0.01289153 -0.0036062966
0002b0 b7 ab 4c 3d 18 6b 6e 3c 92 f0 89 3c b3 a5 a7 3b
       0.049968448 0.0145519 0.016838346 0.0051161884
0002c0 6d 18 46 3b 77 51 e4 3c c3 d9 e6 3c 8c 32 76 3c
       0.0030226961 0.027870877 0.028180009 0.0150267
0002d0 68 99 87 3c f1 74 5d 3d ae b0 5f 3c f8 6d 8f 3c
       0.016552642 0.054066602 0.013652964 0.017508492
0002e0 3d 7f 8a bc ce 16 21 3b a2 3a 5c bc 99 6d be 3a
       -0.016906375 0.0024580243 -0.0134417135 0.0014528512
0002f0 e6 f7 e0 3c e3 a8 7b 3b 31 f2 80 3c e1 3c 4b 3d
       0.027461957 0.0038400225 0.015740486 0.049618606
000300 d9 f5 30 3d 46 c3 0a 3c 42 f9 31 3c bf e8 3a 3c
       0.04320321 0.008469408 0.01086265 0.01140803
000310 a0 ff 82 3c b3 c3 4e 3d e3 8c 10 3d 35 b8 64 3c
       0.015991032 0.050479602 0.03529061 0.013959934
000320 88 ea 01 3d ba 6b b0 3c 29 84 5b bb 2e b1 e5 bc
       0.031717807 0.021535743 -0.0033495522 -0.028038587
000330 54 62 2b 3d 59 fe 5e 3c a8 c5 ab bb 16 37 c0 3a
       0.04184182 0.013610446 -0.0052420683 0.0014664854
000340 c1 01 ac bb f1 eb d3 3b e6 c4 90 bc d5 20 aa 3c
       -0.0052492325 0.0064673354 -0.017672013 0.020767609
000350 92 66 d6 3b 17 ec e6 bc 4e 3a 9b 3c 45 c1 a5 3c
       0.006542989 -0.028188748 0.0189487 0.02023376
000360 d0 b3 0d 3d c3 2f 17 bc b6 95 82 3c a4 eb 8c 3c
       0.03459531 -0.009227696 0.015940528 0.017202206
000370 e8 76 43 ba 8a 0e ee 3c 2e 55 ec 3c 83 a2 48 bb
       -0.0007456378 0.029059667 0.02884921 -0.0030614443
000380 80 b8 6a bc 05 9a ad bb cf 0c bb 3c 6d 6b d7 3c
       -0.014326215 -0.0052979016 0.022833256 0.026296342
000390 89 f2 4f 3c 80 02 de 3b 0c 2c 7b bb 59 52 e9 3a
       0.012692102 0.0067752004 -0.0038325815 0.0017801031
0003a0 a7 7a 31 bc c6 d2 57 3b d3 61 cf bc 82 28 61 3c
       -0.010832465 0.0032932027 -0.0253152 0.013742568
0003b0 e5 44 ad 3c 36 d2 9c bc 98 f3 b6 bc c6 67 a1 3c
       0.021151016 -0.019143205 -0.022332951 0.019702803
0003c0 79 22 18 3d 7a 10 e2 3c b8 75 11 bc 26 d0 ca ba
       0.03714225 0.027595747 -0.008878164 -0.001547341
0003d0 4a eb 67 3d 51 34 79 3c 85 7d 9c 3b 83 9b dd 3c
       0.056620874 0.015210227 0.0047757053 0.027051693
0003e0 3f 7a 20 bd 61 2f 00 3d 37 5b 1d 3c 03 74 13 3d
       -0.039179083 0.031295184 0.009604267 0.03599931
0003f0 9a 82 bb 3c a8 ed 60 bd 1b dc a4 bc 65 ab 6c bc
       0.022889424 -0.054914147 -0.020124486 -0.0144451605

fc1.0.bias f4 [16]
000000 9f fc 58 3d 0c 71 f9 bb e7 72 c3 ba 9b c1 7c 3d
       0.052975293 -0.007612353 -0.0014911563 0.061708074
000010 1f b9 5f 3d 7d a9 62 3d 32 3b 2c 3d 3e 07 a7 bc
       0.054619905 0.055337418 0.04204864 -0.020389196
000020 c2 fc 17 3a 31 42 8a b7 d6 1e d0 3c d2 58 8d b8
       0.0005797857 -1.6481705e-05 0.025405329 -6.739948e-05
000030 29 45 47 b9 24 58 57 38 c9 27 32 3d 35 4a fa ba
       -0.00019003883 5.1342082e-05 0.043494973 -0.0019095602

fc2.weight f4 [4, 16]
000000 94 f2 94 3e 5e 28 41 bd 72 22 9f bd b4 7e 76 3e
       0.29091322 -0.047157638 -0.07770242 0.24071771
000010 23 e7 4d 3e dd e8 51 3e 78 ae bd 3d 0c 1b c5 be
       0.20107703 0.20498987 0.09261793 -0.38497198
000020 ff b1 99 bc 7f 65 24 ba c1 16 2e 3e 96 7a 4d bd
       -0.018761633 -0.00062712276 0.17000867 -0.050165735
000030 4e 97 2e 3c 3e b1 65 b5 f1 da 52 3e 63 a7 00 3b
       0.010656191 -8.556707e-07 0.20591332 0.001963102
000040 31 d6 a4 bc eb 3f 01 3e 09 a3 ec bb 68 2f 3d be
       -0.020121666 0.12622039 -0.0072215837 -0.18475115
000050 1b c3 a1 bd 94 3c 5e be 3a 44 9b be ca 9f 09 3d
       -0.078985415 -0.21702796 -0.3032549 0.033599652
000060 06 68 14 3e a3 77 d6 39 bc 03 70 bd 88 69 a9 bd
       0.14492807 0.00040906397 -0.05859731 -0.082720816
000070 b4 b6 47 3b 84 36 a6 ba 69 67 59 be 94 f9 99 bc
       0.003047389 -0.0012681042 -0.21230854 -0.018795766
000080 91 0d 56 3e 67 40 a8 bd 10 49 71 3c e9 0f a6 bd
       0.20903613 -0.08215409 0.014726892 -0.08108503
000090 88 93 a2 3d 3b db c8 3d 17 ad be bd c8 49 49 bd
       0.079382956 0.0980744 -0.09310358 -0.04914263
0000a0 97 3f 95 bd f1 72 ca b8 93 e4 07 be 84 ea 0d bd
       -0.072875194 -9.65352e-05 -0.13270788 -0.03464748
0000b0 e8 cf 9c bb 1c 4a e8 39 e4 5f 85 3d 4e 5b c5 3c
       -0.0047855265 0.00044305704 0.0651243 0.024091389
0000c0 50 2d cc bd c1 e9 01 bc f3 ef 90 3b 1c 49 65 be
       -0.0996958 -0.007929266 0.0044231354 -0.2239117
0000d0 69 a2 72 bd 31 7b 08 be e2 d3 59 be d7 68 3e bd
       -0.059236918 -0.13328244 -0.21272233 -0.0464867
0000e0 be 1b 0f be eb 51 11 39 e8 59 03 be f7 b7 65 bc
       -0.13975427 0.00013858794 -0.12827265 -0.014020911
0000f0 c4 6f 50 bc e5 aa 48 b7 d3 9f d7 bd ee 8d b9 bc
       -0.0127219595 -1.1960718e-05 -0.10528531 -0.022650685

fc2.bias f4 [4]
000000 1b 9b ef be 01 1a 56 3e f8 08 a1 3d f6 b9 a9 3d
       -0.46798024 0.20908357 0.07863039 0.08287422
